nn_model/checkpoint/penn_model_0921.pth (torch, 222975 bytes, 10 tensors)

model.lin1.weights f4 [3, 6, 40]
00000000: c441 973e be47 b93e 969b cd3d b40f 923e
00000010: d7b5 aabd 8f47 533c dff2 16be 1839 383e
00000020: 4190 ae3e b1a8 f3be fc81 ec3e 3c70 6d3d
00000030: 18ae 953e 254b 33be 93f1 d33e 15fc 0fbe
00000040: 881b 643e 153b 813d 2d38 89be d9c5 c8bc
00000050: ec50 a6be ead3 e7bd 9698 c5be 4afd 8c3e
00000060: 14b6 fabe 6300 b7be e68f 59bd 5f98 13be
00000070: b638 223d 9796 00bf cb00 d13e f801 0dbf
00000080: 53d9 333f 0564 c23e 17ab 4cbe 885f 2b3f
00000090: 51f7 0a3e e198 f43e 9bf6 b23b f3b3 f2bc
000000a0: 2cc1 163d b702 47be 3aea 053e 4dd8 e53d
000000b0: 0947 883e aa96 32be 430f 973d d7a4 ab3d
000000c0: 6915 353e cedb f9be 08ba 92be a414 a13c
000000d0: 7e3c bbbe e407 8d3d a7ce 3d3e 67ae 49bd
000000e0: 46d4 c7bb 2e21 6e3e a97e 373e ebb6 89be
000000f0: 735e ca3b 63f1 91be 1887 6d3e 96dc f0bd
00000100: cd36 893d 9b60 e5bd 7ac0 943e 5aa1 d0be
00000110: 7a35 b2be 3cac 90be a6c0 a43e fe59 043e
00000120: d2f9 5b3e 8154 03bd 0c20 fdbe b053 1ebf
00000130: 1938 41be 7fc0 9d3d aaac 333e 8f15 933e
00000140: 6a84 53bd 1480 50be 87cb a83e 93f2 ad3c
00000150: 515e 9f3e bec6 ddbd 98e8 d83e 243f 4fbd
00000160: 95b7 e0be ec47 fe3d 758f 8a3d 9872 c0be
00000170: 01e5 ac3e c7e9 d23e 4462 aebd 25aa 15be
00000180: 9e62 933e 25ed a0bd 2732 90bd a99d cfbe
00000190: 68a6 8dbe f6b9 633e 2146 fdbd c560 86be
000001a0: e8df 74bd 208d 33be 2816 b8be 6ffb b3be
000001b0: 2f53 d2be ef72 7ebe f76c 0a3f d105 c13d
000001c0: 5227 873d bef9 98be 6b77 88be 1a64 e4bd
000001d0: b216 413d 1071 1dbe a704 1ebb 5f0d 30be
000001e0: 7d57 143c 209c e5bd 7aac 53be a4fa ddbe
000001f0: a0bf e9be c957 8bbe 49a1 acbe b61f d0be
00000200: e762 f63e 6736 a0bd e81d ef3e 1856 4e3e
00000210: b913 a6be e5b1 cf3e b619 40bd 26fe 49be
00000220: 71a5 aabe bde2 06bf ba01 3a3e aab2 3b3d
00000230: b175 103e 7b4e c0be 7005 5a3e c11c 33be
00000240: 4881 12bd 36ac 763e fa15 cb3e 5313 bd3e
00000250: 8819 f73e 1f5f a3be 63f0 fa3d 119d 33be
00000260: 70f9 9abd 0c81 eebe 9375 d03e 6590 6fbd
00000270: 99df cf3e 92f0 203e 3dbf 103c 92dc 78be
00000280: c587 7e3e 4f3b 4d3c df6d 3e3e e23b a9be
00000290: 5946 673d 39e0 293d e2df 1bbe b231 6e3e
000002a0: 2a85 13bd 6f1e 50bd 6092 1bbd c081 c43d
000002b0: d256 fbbb 2a3b 0ebe 2dea 0fbf fd2d cbbd
000002c0: fd4d 12bf 4df2 a53c 9c4f 9f3e 3057 0bbf
000002d0: d969 653c 3bc0 373e da04 5dbd f45f 9cbd
000002e0: 3427 9a3d 9c2c 803e 9a40 c33d bd28 103e
000002f0: 2c0a 13be 9dd3 fbbb 63f3 533c fb8e 32bd
00000300: 11cd 4c3e ec51 f33e e894 be3d 4d59 a63c
00000310: c234 f83d 4ee3 4ebd 5adc cdba f7e0 303d
00000320: 01f8 0cbf eb95 03ba 2af6 7d3e 2443 0d3e
00000330: adc4 0b3d b154 a9bd b74d 31be b96c 1bbf
00000340: 67e6 1fbd 859d 1b3e d990 513e 25f5 a33d
00000350: ac44 edbe 0e15 25be 4ceb 0fbc 3257 a63e
00000360: 4883 94bc eecd 9fbd fe52 c93d dc80 19be
00000370: f4d1 21be 95e7 d03d 4466 2cbd 51a1 32bd
00000380: e69d 94be 046b 6e3e 9b67 663e b3b3 2f3e
00000390: 2d2b 42be 673a 53be b402 a8bd 082a 533e
000003a0: 2ce2 3d3e f68f d63e 1ce7 e33d 1749 543d
000003b0: fa42 2e3d 42de 03bf 248d f2be 16b9 04be
000003c0: 4251 363d 3649 1fbe bd99 f63c 7689 e3be
000003d0: 1c30 d7bd 758f fdbe 5b9f 7abe a6fe 843e
000003e0: 0609 92bd 09eb d03e c5f3 83be a4a3 44be
000003f0: fee0 68bd 1422 6dbe b806 9bbc 52fe 11bf
0.29542363 0.36187547 0.10039441 0.28527606 -0.083354644 0.012895479 -0.14741085 0.1799053
0.34094432 -0.4758964 0.4619292 0.057968363 0.29234385 -0.17509134 0.41395244 -0.14061005
0.22276127 0.06310097 -0.2680067 -0.024508404 -0.32483613 -0.11319716 -0.38592976 0.27536994
-0.4896704 -0.35742483 -0.053115748 -0.14413594 0.039604865 -0.5022978 0.40820917 -0.5508113
0.70253485 0.37966934 -0.1998714 0.66942644 0.13570906 0.47772887 0.0054615266 -0.029626822
0.036805317 -0.1943463 0.13077632 0.11222897 0.26616696 -0.17440286 0.07375958 0.0838105
0.17683949 -0.4880051 -0.28657556 0.019663163 -0.3656959 0.06886271 0.18535863 -0.04923859
-0.006098303 0.23254845 0.17919411 -0.26897368 0.00617581 -0.28504476 0.23196065 -0.117608234
0.066999055 -0.11200067 0.29053098 -0.407481 -0.34806424 -0.28256404 0.3217823 0.12924954
0.21482018 -0.03206301 -0.49438512 -0.61846447 -0.18869056 0.07702731 0.17546335 0.28727385
-0.05163995 -0.20361358 0.3296778 0.021233832 0.31126645 -0.10828923 0.42364955 -0.050597325
-0.43890062 0.12416062 0.067656435 -0.37587428 0.33768466 0.41193983 -0.085148364 -0.14615686
0.28786176 -0.07857732 -0.07040816 -0.40549973 -0.2766602 0.22238907 -0.12366892 -0.26245704
-0.059783846 -0.17534304 -0.35954404 -0.35152766 -0.4107909 -0.24848531 0.5407252 0.094249375
0.06599297 -0.29878038 -0.2665361 -0.11151905 0.047140785 -0.15375161 -0.002411166 -0.171926
0.009054062 -0.11211419 -0.20671263 -0.43355286 -0.4565401 -0.27215412 -0.337168 -0.40649194
0.48122332 -0.078228764 0.46702504 0.2015003 -0.32436922 0.4056541 -0.04689952 -0.19725856
-0.33329347 -0.52689725 0.18164721 0.045824684 0.14107396 -0.37559876 0.21291137 -0.17491437
-0.035767823 0.24089131 0.39665204 0.36928806 0.48261666 -0.3190851 0.122528814 -0.17540385
-0.07567108 -0.4658283 0.40714702 -0.058487315 0.4060028 0.1571677 0.008834657 -0.24302891
0.2485648 0.012526347 0.185966 -0.330535 0.056463573 0.0414736 -0.15222123 0.23261145
-0.036015667 -0.050810274 -0.03798139 0.0959506 -0.007670262 -0.13889757 -0.562167 -0.09920881
-0.5715025 0.02025714 0.31115425 -0.5442991 0.014002287 0.17944424 -0.053959705 -0.07635489
0.07527009 0.25034034 0.09533806 0.1407804 -0.14359349 -0.0076851384 0.012936446 -0.043593388
0.20000102 0.4752344 0.09305745 0.020306254 0.12119438 -0.050509743 -0.0015705929 0.043183293
-0.55065924 -0.0005019593 0.24800935 0.13795143 0.03412311 -0.08268107 -0.17314802 -0.6071277
-0.03903809 0.15196808 0.20465411 0.08005742 -0.46341455 -0.16121313 -0.0087841265 0.324884
-0.018129006 -0.0780295 0.09830283 -0.14990562 -0.15802747 0.10200421 -0.042089716 -0.043610875
-0.29026717 0.2328301 0.2250046 0.17158394 -0.18961783 -0.20627747 -0.082036406 0.20621502
0.18543309 0.41906708 0.11128065 0.051827516 0.042544343 -0.51511014 -0.47373307 -0.1296123
0.044511087 -0.15555272 0.030102605 -0.44440812 -0.10507223 -0.49523512 -0.24474852 0.2597553
-0.07130627 0.40804318 -0.2577192 -0.19203049 -0.056855194 -0.23157531 -0.018924102 -0.57028687

model.lin1.biases f4 [3, 1, 40]
00000000: 2760 6dbe 9f3e ee3e 39ba af3e 71d8 d03e
00000010: 8e31 323c 307c 493e 4c04 b93d 55cf 79be
00000020: 4dd2 c9be 83d1 31be 3233 f53e 2fe2 eabe
00000030: 9701 72be b4e6 b53e 09f6 183d e33d c73e
00000040: 8846 4dbe 5f44 0fbe 9fca 4d3e d2da 873e
00000050: ee00 453e 645e a43e 30d7 cabc b24b f33e
00000060: 1ec6 4dbe 5087 83be 783f d23e fd06 cdbe
00000070: 7772 c6be 316b b93e 4654 5c3e 5acf 913c
00000080: dd60 553e dffe b2bd 391e c03e c62c 063e
00000090: 0767 9d3d 5f70 5d3e f91f e7be 76f7 043f
000000a0: a966 21be cc31 ffbd a911 f53c 33a3 73be
000000b0: c0f3 bfbe 10ab 013e 9c2d 81bd be0d 5ebe
000000c0: c704 31bc 241c f93e 7c27 073e aff0 89bc
000000d0: 3ecf a1be 7f36 c5bd 0567 5e3e e35f acbc
000000e0: 80ed 75be 38dd 48bd 39da abbd 015e 533d
000000f0: f7eb 343e 5589 6abe d7c9 68bd de8c 3f3e
00000100: 0e5d e4bd 91c5 80be 8e6f eb3e 2e54 6a3e
00000110: a3af 67be 2b0d f53e f351 05bc 9ac1 7b3e
00000120: eec3 e43e 9c3e 11be 584a 843e e969 82be
00000130: bad2 15be 6337 a6bc ad5b cbbe 54f1 013f
00000140: 3742 e93d ce39 e73d 42af 92be f4e0 c03e
00000150: 47e0 41be 1e78 98be 9841 0e3d 070d 3d3e
00000160: dd52 d73e 70f1 aebe 0d73 87be ad21 853d
00000170: 7bd9 c13e e5e5 7f3e 4f0c 903e e247 2abd
00000180: 7b54 aa3e 3188 f63e 14d4 63be 81aa ac3e
00000190: 9a61 213e ca0f ab3e 6087 a7be 2c75 76be
000001a0: 5baf 493c 5274 6c3e acef d03e cce3 fabe
000001b0: 4a4a 913e 4386 55be 14ab c23e a019 da3c
000001c0: 04d1 99be a6c7 82be 71db 57be c1c2 923e
000001d0: af1b 1fbe 5ca5 b5bd 7132 953e 618a 1dbd
-0.2318121 0.4653215 0.34321764 0.40790132 0.010876073 0.1967628 0.09034023 -0.24395497
-0.3941826 -0.17365079 0.4789062 -0.4587569 -0.23633419 0.35527575 0.037344012 0.38914403
-0.20046437 -0.13990925 0.20096825 0.26534134 0.19238636 0.32103264 -0.024760813 0.47518688
-0.20095107 -0.25689173 0.41064048 -0.40044394 -0.38759205 0.36214593 0.21516523 0.017799068
0.20837732 -0.08740019 0.37523058 0.13103017 0.076856665 0.21624897 -0.4514158 0.51940095
-0.15761818 -0.1246067 0.029915648 -0.23792724 -0.37490654 0.12662911 -0.063075274 -0.2168493
-0.010804362 0.48654282 0.13198656 -0.0168384 -0.31603426 -0.09629535 0.21718986 -0.021041816
-0.2401638 -0.049039096 -0.08391232 0.05160332 0.17668138 -0.2290395 -0.056833114 0.1870608
-0.11150561 -0.2515073 0.45983547 0.22883675 -0.22625594 0.4786161 -0.008137214 0.24585572
0.44680732 -0.1418404 0.2583797 -0.25471428 -0.14631167 -0.020290082 -0.3971838 0.5075886
0.113895826 0.11290322 -0.28649336 0.37671626 -0.18933211 -0.29779142 0.034730524 0.18462001
0.42055407 -0.34168577 -0.26454964 0.06500564 0.37861237 0.24990042 0.2813439 -0.04157246
0.33267578 0.4815078 -0.2224887 0.33723834 0.15759888 0.33410484 -0.3272047 -0.24068135
0.012309874 0.23091248 0.40807855 -0.4900192 0.2837699 -0.20851998 0.38021147 0.026623547
-0.3004228 -0.25542945 -0.21079804 0.2866421 -0.15537904 -0.088694304 0.29140046 -0.038462047

model.lin2.weights f4 [3, 40, 80]
00000000: b516 c9bb 42c8 4e3d 13c7 5c3e 8b30 23be
00000010: afdd 7b3d bf66 35be 096d 163d 6b5b dcbe
00000020: bb4f 0b3d c2d9 db3d e8e5 3c3e f281 953d
00000030: a90e 92be a3a1 14bd 9aa8 3abe 2d87 e93d
00000040: 1809 00be abaa c6bc b5e6 113e adbd a63e
00000050: 94a7 123d a7dc 2bbe 18de 723d 5eed cdbd
00000060: 462e 233d e1dc 62be ad97 413e 6076 193e
00000070: 7be0 693e fc49 d8bd 9e9e 11bd cf09 1d3e
00000080: ff96 9c3d 85ad 553d edaa 90bd c92c 24bd
00000090: 1ff7 ec3d 4390 f3bd 4163 b43d c842 e5bc
000000a0: 8e7a 8d3d 03f6 5f3c 6939 513d d824 043e
000000b0: 2089 363e 86ac 0d3d 18aa 133e b568 96bd
000000c0: c930 81bd 11b6 cf3d 8fc2 7e3d 1f8b 053e
000000d0: fcfb 163e 2500 a2bd 8fd6 2e3c 04f6 4dbd
000000e0: af65 3cbb 4a8e 65be 2773 46be c08d 763d
000000f0: 2231 dfbc b8f3 853c 0432 443e 4d4c 9abe
00000100: 23e2 573e ad40 0f3d 38db 87be 35c6 333e
00000110: 2f7f af3c 1752 53be 7362 70bf d562 a83d
00000120: 7cdb b03d 9fe8 fd3b 9e7f ae3d 1ccc 1cbd
00000130: 6be2 2bbe 3e38 80bc b860 20bd 8d05 703a
00000140: 1189 12be 5325 d1bd 8bad 8ebd 7fba 5f3d
00000150: a732 803e 820f 81bc 95f3 a03d 9437 0cbd
00000160: 1a2b 04be 44dc 263b b50a 523e 4a11 4abd
00000170: ffce 65be 95c4 67be f59e 6bbc 3eb9 a4bb
00000180: e0dd 80bd e848 6f3d 23d4 d53b f3de 853d
00000190: 61a7 0cbe 5d54 5abd ca1e 99bd 5f36 8a3d
000001a0: 84d0 fdbd 4681 c7bd f54c 4fbe 9bf0 02be
000001b0: 6635 a3bd dd3f 80bd 2740 8fbd 5294 63bd
000001c0: 4fe4 f33d 6582 133e 824a 033e a354 eabd
000001d0: dceb 30be 6faf 02be 0930 2a3e b081 843c
000001e0: 962e f2bd 00dc 1b3d 7c9c 0dbe 5793 853d
000001f0: c705 1c3b e6e3 36bd 2b46 d63d a0ee bebc
00000200: f4dd 513d 2dc7 4a3b 80fe bf3d 902c f43c
00000210: cecc 813d 2fd7 5e3d b9f6 2f3e 9085 873b
00000220: c687 40be 7280 11bc 44c3 ec3d 18ed 953e
00000230: a7bb b73d 1990 283c 0a3d 983d a42f 8f3e
00000240: 0fc5 46be cbac 28be 2cc9 343c 7f97 21bc
00000250: 11fd 833d f43d 6c3d 7186 abbd da09 133d
00000260: 5d3b 853d cdb0 e1bd 94fe 2d3e 0188 98bd
00000270: db42 99bd 8187 bdbd 140a f2bc b089 83be
00000280: b776 363d db7c 01bf 5384 cfbe 4511 283d
00000290: 1c80 bbbb 573c 07bd ccce 19bd 1771 a2be
000002a0: 9d36 9fbd 91b5 8bbf 8eb0 4a3c 24f3 cfbd
000002b0: 1974 e2bc 6e0e 0c3e 2dbd 0b3d 8053 0b3e
000002c0: 36a2 23be 278d f93d 4272 dcbb 9ea2 f73b
000002d0: 97fa cbbd 7251 213c 5a74 a0be 1b1f 2fbe
000002e0: 5ffb e53d 0e3f 46bd 243f 513d 80f5 93bd
000002f0: d42d edbe a036 883d 4d8b d63d dd87 14bd
00000300: f0e3 c2bd 2d52 c8be 7374 043d ef5f 203e
00000310: 8975 ff3d 9b09 26bd 348b 06bd 3806 8ebc
00000320: 3459 02be 784b 173e 6237 2abd 5dd0 f83c
00000330: 82d1 16be 7e4f 53bd daa2 80be 8f4b 1e3e
00000340: e656 043d 378c 05be 09fc 513e 82e8 26be
00000350: 09e0 9fbe 5910 04bd e885 283e 08ff bfbd
00000360: 0f66 273d f31d 34be e9ec 213d b1d7 90bf
00000370: d021 5ebd bc80 e63d ce2e 333d 60b2 6c3e
00000380: 8c63 debd 589d febc 2a9f 6ebf 2204 533d
00000390: 20ca df3d 047a 3f3e 86e9 5b3d d2d8 2d3d
000003a0: 759a 90bc 1b89 8e3d 7cc3 3cbd 0205 cb3d
000003b0: b661 90bd 31a7 43bd eb69 13be 5cc2 133b
000003c0: 153f e9bd 3d6e 38be c70a 2fbe 31ff 19be
000003d0: 5a2c 883d 82e9 333d f756 ee3d 3a59 853e
000003e0: 36b4 82bd 7cae bebe fdfe 083c c0a5 9f3d
000003f0: b2fe 8bbd fabd 2a3d 03c3 773d 27c7 28bd
-0.00613674 0.05048395 0.21560316 -0.15936486 0.06149071 -0.17714976 0.036725078 -0.43038496
0.034011584 0.107348934 0.18447077 0.07300176 -0.2852681 -0.03628696 -0.18228379 0.11402736
-0.12503469 -0.024251303 0.14248164 0.32566586 0.035804346 -0.16783391 0.059293836 -0.1005504
0.03983905 -0.22154571 0.18905516 0.14986563 0.22839539 -0.105609864 -0.03555166 0.15335773
0.07645988 0.052167434 -0.070638515 -0.040081773 0.11570572 -0.1189275 0.08807994 -0.027985945
0.06908141 0.013669494 0.05108014 0.1290468 0.17825747 0.03458836 0.14420354 -0.0734419
-0.06308133 0.10142148 0.062197264 0.13041352 0.14744562 -0.07910184 0.010671272 -0.050283447
-0.0028747132 -0.2241756 -0.19379865 0.060193777 -0.027245108 0.016351566 0.19159704 -0.30136338
0.21082358 0.03497379 -0.26534438 0.17556079 0.02142295 -0.20636784 -0.9390022 0.08221976
0.08635613 0.007748678 0.08520435 -0.03828059 -0.1678559 -0.015651818 -0.03915474 0.00091561006
-0.14310099 -0.10212197 -0.069666944 0.054621216 0.25038645 -0.015754465 0.078589596 -0.03423269
-0.12907067 0.0025460878 0.20511897 -0.049332894 -0.22442244 -0.22633584 -0.01438116 -0.0050269654
-0.06292319 0.05841914 0.006525533 0.06536665 -0.13735725 -0.05330311 -0.07476576 0.06748652
-0.12393287 -0.09741454 -0.202442 -0.12787096 -0.07969169 -0.06262181 -0.06994658 -0.05556137
0.11908781 0.1440521 0.12821391 -0.114419244 -0.17277473 -0.12762235 0.16619886 0.016175121
-0.11825292 0.038051605 -0.13829225 0.065222435 0.0023807155 -0.044650935 0.10462602 -0.023307145
0.05123706 0.0030941472 0.09374714 0.029806405 0.063378915 0.054404434 0.17183961 0.004135795
-0.18801793 -0.008880721 0.115606815 0.2928245 0.08971339 0.010288262 0.07433517 0.27966034
-0.1941111 -0.16472165 0.011034291 -0.00986278 0.06444753 0.05767627 -0.08375252 0.035898067
0.06505463 -0.1102005 0.16991645 -0.07447816 -0.07483455 -0.09254361 -0.029545821 -0.25690985
0.04454681 -0.5058114 -0.40530643 0.041032095 -0.005722059 -0.03301653 -0.037550732 -0.31726906
-0.077740885 -1.0914785 0.0123711955 -0.10153797 -0.02764325 0.1367738 0.03411596 0.13606071
-0.15979847 0.12185126 -0.006727488 0.0075572273 -0.099599056 0.009846078 -0.3133877 -0.1710171
0.11229586 -0.048399977 0.051085606 -0.0722456 -0.46324027 0.06651044 0.10475788 -0.03626238
-0.09516132 -0.39125195 0.032337617 0.15661596 0.1247359 -0.040536504 -0.0328476 -0.01733695
-0.12729341 0.14774883 -0.041556723 0.030372793 -0.14728358 -0.05158948 -0.25124246 0.15458511
0.032309435 -0.13041769 0.205063 -0.16299632 -0.31225613 -0.032242153 0.16457331 -0.09374815
0.040868815 -0.1758955 0.039532576 -1.1315824 -0.054231465 0.11255023 0.04374581 0.2311492
-0.10858831 -0.031080887 -0.93211615 0.051517613 0.10927224 0.18698889 0.053689502 0.042443104
-0.017651776 0.069597445 -0.046084866 0.099130645 -0.07049887 -0.047766868 -0.14395873 0.0022546267
-0.11388985 -0.18010803 -0.17093955 -0.15038754 0.066490844 0.043923862 0.11637681 0.26044637
-0.06382029 -0.37242496 0.008361575 0.07795286 -0.06835689 0.041685082 0.060488712 -0.04120555

model.lin2.biases f4 [3, 1, 80]
00000000: b693 df3d 1d88 3abe d776 29be 1932 473d
00000010: 811c 3cbe 05e5 8a3e dd34 473e 7898 94be
00000020: e595 a2bd 6d30 37be 0d5d 743d af63 0d3d
00000030: 11b9 11bd bd73 713e f0fd 793d 5ead 9e3d
00000040: d5cc 5b3e cebd 3abd c5bf 4fbe 3cc8 e73d
00000050: 907a c8bb 3d19 873e 75eb 45bd ac6f 4c3e
00000060: 9ec0 8c3c f406 37be 55f5 8bbd 48cb 463e
00000070: 27fb 07be 23ac 553e cf08 333d 2103 edbd
00000080: b33a 92be d12e 83bd cace 1bbd a8d6 3cbd
00000090: 06f8 ea3d 0cdb 81be a27d 88bd 127d 06be
000000a0: d02b 2b3d b8c2 803d d10e 91bd 38ab be3d
000000b0: a006 d53d 2864 d83c 8daf 723e de68 c83d
000000c0: 58f3 b43d a065 10bd 30b2 29bd 80c8 0abe
000000d0: 17e5 17bd a4d7 6b3e 549d afb9 1b83 c33d
000000e0: 65b3 293e cb74 06bd 051b 7a3d 9e11 f9bd
000000f0: 38f0 8b3e f430 493e 78ea 2ebc a2d4 bb3d
00000100: 0dbc 8dbd b930 cf3d 8e1e 3ebd 9646 3bbe
00000110: bff9 583e 5828 7b3c c49e 61be 5348 e63c
00000120: c3ba 2a3e bfaf 3abd b2be 0c3e 0e3e 1f3e
00000130: 6042 183e c1d4 22be 5246 65bd 29ee 013c
00000140: f6e3 aebd bc00 df3d 02ed babc 2516 dfbc
00000150: b334 233e 7eaf 583e a9f0 423e 8630 aabd
00000160: 905e 543e 9357 183e f0f1 4cbd 1551 1f3e
00000170: db4d c73d 771c 343e 1452 a8bd b189 763e
00000180: f010 05bc c4c3 1abd 23eb 09be 6705 d03c
00000190: 1908 08be c973 5f3e 9b4e a4bd e610 3e3c
000001a0: 9528 adbd 7a55 ecbd e49e 84bc e88e ffbc
000001b0: fa6b d43d e641 033d 1f0b 04be cc24 1d3d
000001c0: b7b5 bdbd b9f6 43bc 72af 5cbe 868d 583c
000001d0: d487 593e eba5 a6bd 9997 403e 8972 833e
000001e0: 8378 5c3e 2141 7f3e e552 13be 662f a9bc
000001f0: 9479 453e 741c 213c 1e97 20be 5481 fabd
00000200: 8841 1a3e d06d 5bbc bdde 823d f543 0ebe
00000210: edca 603d 9fb4 2a3e 3a11 de3d cfca ae3d
00000220: b56c 413e 6ac9 1b3e a6f8 b93d 07f9 96bd
00000230: 1e98 efbd 09e8 063e 123c a7bd d2dc 42bd
00000240: f6bf 60be 02d6 833d 87b2 ca3d fcf6 0abe
00000250: 4088 033c c3a8 6e3e b2e9 57be bb88 30bd
00000260: 53c3 443d 90d3 14be da4d 1abe 6a84 2e3e
00000270: 43d3 453e 4e88 39be 4864 823d 4971 8ebd
00000280: c763 bb3d b9ff 2a3e a5eb c43d cf61 8f3d
00000290: 91d3 21be dd06 18be 1271 873d 9f6e 1e3e
000002a0: c29e 4e3e 9d57 0a3e 76ad 62be 447c 1e3e
000002b0: 34ba 55be 34f4 3cbe b065 ea3d e721 2abd
000002c0: 83e7 40be 50a9 de3d 6c53 a73e 563d 17be
000002d0: 273f 833e fbfc 653e 0d2f dbb9 3de6 41be
000002e0: eb5a 9cbd 3593 b53d 1ede fdbd 79ab 7abb
000002f0: df48 093c 647c 6a3e 9bfa 103e 77e4 09be
00000300: df5b 093d b4fd 7a3e ef84 17bd b33f 64bd
00000310: c8c2 66bc 86e2 573e 306e 65bd 8b11 4ebe
00000320: 142f 5d3a 74ae bd3d 6baf 473b d1c0 173e
00000330: 03f3 413d 585c 913c 2fcd f33d d483 66bd
00000340: 3dfd 32be 07f7 2abe 198d 22bc d762 8abd
00000350: ad29 29be 6941 5a3e c8e4 84bc 30fc 723e
00000360: 3839 22bd 80ce e43d 83ce 053e 4030 a3bd
00000370: 6a2e 62bd fb48 0fbe c8f3 fcbd c21b 253b
00000380: 190c 2cbc 27ab 3c3e 539c 2c3e fa91 453e
00000390: bca2 08bd 955d 353e 2ab3 573e 2385 d83c
000003a0: def9 91bd e313 0bbe 8ea7 74be 1d9c f33d
000003b0: 6cc8 063e 61b7 08be 68da 8b3d 4a1b dabd
0.109168455 -0.18215986 -0.1654924 0.04863176 -0.18370248 0.27127853 0.1945376 -0.29022574
-0.07938746 -0.17889567 0.059659053 0.034518894 -0.035576884 0.23579307 0.06103319 0.07747911
0.21464856 -0.045591168 -0.20287998 0.113174886 -0.006118126 0.26386443 -0.048320252 0.19964474
0.01718169 -0.17873746 -0.06833903 0.19413483 -0.13279401 0.20866446 0.043709572 -0.115728624
-0.2856041 -0.06405414 -0.038039006 -0.04610315 0.11473088 -0.25362432 -0.066645876 -0.13133648
0.04178983 0.0628714 -0.07082904 0.09310001 0.10401654 0.026414946 0.2369978 0.09785627
0.08835477 -0.035253167 -0.0414297 -0.13553047 -0.03708371 0.23031479 -0.0003349582 0.09546491
0.1657234 -0.032826226 0.061060924 -0.12161563 0.2733171 0.1964758 -0.010676019 0.09171416
-0.069206335 0.10116715 -0.046415858 -0.18288645 0.2118902 0.015329443 -0.2203322 0.028110659
0.16672806 -0.04557776 0.1374462 0.15551016 0.1486907 -0.15901472 -0.055975266 0.007930317
-0.08539574 0.10888812 -0.022818092 -0.027232239 0.15938072 0.21160695 0.19037117 -0.08310036
0.20739198 0.14877157 -0.050035417 0.15558274 0.097316466 0.17588983 -0.0821878 0.24075963
-0.008121714 -0.037784353 -0.13468604 0.025393201 -0.13284339 0.21821512 -0.08022805 0.011600709
-0.08455006 -0.11539741 -0.016189046 -0.031196073 0.103721574 0.032045268 -0.12894867 0.03836517
-0.09263175 -0.011960679 -0.21551302 0.013217336 0.2124322 -0.08137115 0.1880783 0.2567332
0.21530347 0.24927188 -0.1438709 -0.020652484 0.1928466 0.009833444 -0.15682647 -0.12231699
0.1506406 -0.013392881 0.0639014 -0.13893111 0.054881025 0.16670464 0.108431295 0.085347764
0.18889125 0.15213552 0.09080629 -0.07371717 -0.11698936 0.13174452 -0.081657544 -0.047573872
-0.21948227 0.06437303 0.09897333 -0.1357078 0.00802809 0.23306565 -0.21085241 -0.043099146
0.04803784 -0.1453383 -0.1506876 0.170427 0.19318871 -0.18118402 0.063667834 -0.06955201
0.091498904 0.16699113 0.09615258 0.070010774 -0.15803362 -0.14846368 0.06613363 0.15471886
0.20177749 0.13509984 -0.22136483 0.15477091 -0.20871812 -0.18452531 0.114451766 -0.041536238
-0.18838315 0.108721375 0.32680833 -0.14769492 0.2563412 0.22459786 -0.0004180599 -0.18935485
-0.07634529 0.08865968 -0.12395881 -0.0038249178 0.00837919 0.22899014 0.14158098 -0.13466059
0.03353488 0.24510843 -0.03699201 -0.05572481 -0.014084525 0.21082506 -0.056013286 -0.2012388
0.0008437496 0.0926179 0.0030469547 0.14819647 0.047350895 0.017744228 0.1190437 -0.056278065
-0.17479415 -0.16695796 -0.009921336 -0.067571335 -0.16519804 0.21314014 -0.016222373 0.23729014
-0.03960535 0.11172199 0.13067059 -0.07968187 -0.055220045 -0.13992684 -0.12351185 0.0025193547
-0.010500931 0.18424664 0.16856508 0.19293967 -0.03335832 0.1771148 0.2106444 0.026430672
-0.071277365 -0.13581805 -0.23892042 0.118950106 0.13162392 -0.13351204 0.06828767 -0.10649736

model.lin3.weights f4 [3, 80, 120]
00000000: 9e90 bd3d 276a ebbd 6813 ff3d ce09 4fbd
00000010: 9442 12be e6bb 9a3d 4e81 a5bd f8ec 8fbb
00000020: d014 143e f9f4 01be c01f 643b ea60 083e
00000030: 9fb3 ddbd 1528 52bd ef6a f93d 218f a33a
00000040: 623d 67bd 5f96 e3bc 3fc1 8a3b bcb7 eabb
00000050: af08 d33d 2c1f d33d 4657 9d3d 14b3 e53d
00000060: 1f37 0ebd 3811 c53d 44bf 573d 96c4 15bd
00000070: 96e1 8d3d 5965 113e 2a13 853d e967 8f3d
00000080: 57e0 e3bd eb0d 2fbe 43b2 00bd ab71 cfbd
00000090: 826f 723d ea28 2fbb 2a77 0b3d bdba 11bd
000000a0: db1d 51be a510 bfbd 94e5 933c e59f c23d
000000b0: f842 92bd a562 433e 904a 053e b4ae c63c
000000c0: e628 e33d b5eb eabc 577f 343e 71eb 3fbd
000000d0: 9773 7b3d be84 81bd 6a8b b93d 552d 80bd
000000e0: e042 05bd fa8e 95bd cd12 383d 2a31 25bd
000000f0: 77df 87bc 71bd bdbc 612e a93d 2ed5 d6bc
00000100: e5a8 e6bb d072 19bd 91e5 00be d156 5cbd
00000110: 0062 0d3e 25c0 f23d db91 34be b6d7 283d
00000120: 827e 7d3c 7e8b c63d 3d19 f53a de7d ac3c
00000130: 184d 6e3d 4637 363d 8f29 86bd 1eac bcbd
00000140: 89d2 02bd 2dd5 61bd 8f69 b5bd 97a3 bdbc
00000150: 9964 543e 8dad d43d 25b1 5a3c 797e 483c
00000160: 67c3 78bc 17dc 2abd 766a 04be fd3b 93bd
00000170: 5ae7 ccbd d963 fdbc 1df1 91bd f137 b33c
00000180: 6e26 b13d ea7c bc3d 80d0 cfbd 8d0c 69bc
00000190: d7ba 963c 4bc0 5b3d 419e c53c c300 8a3a
000001a0: 2e87 cc3d 2a00 68bd 4f36 26bd 4580 29bd
000001b0: 2335 263e d04a e33d 57fc 5e3c fbfb d63c
000001c0: aca5 843e 44bf 0c3d d07d 7cbc 7f3e 2dbd
000001d0: 2d54 093e 9abc 9d3d 5a26 393d 5646 853d
000001e0: bf95 273e f4ef 91bd 93c6 673e 7a2a ec3d
000001f0: 9633 293e 11e2 3f3e fdad 99bb 78b3 7d3e
00000200: e1df d13c cee6 9d3d b201 9ebe d745 b13e
00000210: c0ef ac3d 549f 813c b959 adba 997f af3d
00000220: 61fd 0a3d 5943 ebbd 033f 033e 7fa2 f03c
00000230: d460 163e acc3 0d3e 5fc3 c63e 4238 86bd
00000240: 946f 293e 3bee b53d e99e 0a3e 384e afbd
00000250: 980e ac3c e4fb 1c3f d4d0 373e 6ff9 c83d
00000260: 213b f1be a938 c8be 56ea 05be 0842 f73d
00000270: 273c d7bd 8d58 c33e 1c32 b63d b1ff aabd
00000280: c516 a93e 8772 213e aa5f e9be 6835 cc3e
00000290: 0e3e 863e 6c55 983e 6153 573d dc48 263b
000002a0: 9f37 073e 9e55 81be 3b80 d4be f707 0abf
000002b0: 6b85 063e e48f 163e 0a1e 6e3b 1f6c 20bd
000002c0: 912a bd3e 6407 313d 481f 8c3d 7d66 6c3e
000002d0: 5c74 cd3e 808a e83a c73f 823e 54dd 903c
000002e0: 417f 1dbe 9fc3 cabc 9914 b33e 3252 733e
000002f0: e091 363e 19a3 063e 26a2 53bc c323 af3d
00000300: 3e1b b5be 8d1d 7cbd 1b50 163d 445f dd3d
00000310: 947f 3d3e 7f6e a13e 778f 96bd 3ebb 933e
00000320: cd9c ea3d aeed 613e 0e47 163d 4ac7 bebd
00000330: 79ef 8cbe 7931 9f3c 301e a0bc 9aa8 5abe
00000340: b908 7e3f e861 083e 8195 2a3f a48f b03e
00000350: 3580 d1bd 78ab 62be 6590 b7ba f89f 96be
00000360: c4f7 1b3f c8e6 f53e ced9 bebc 4385 b53d
00000370: ee5e 333e 15e4 833c 316b 6bbe 99ce a73d
00000380: 553c 4a3b 9c63 ecbd d31e b1bd 1520 d33d
00000390: 5079 633d b248 04ba c4e0 8f3e 11e5 f2bd
000003a0: 715a 8bbe 7631 1d3e 51ab 09bc 2605 823e
000003b0: 18d6 a33e bafe eebc bdc0 cbbe 19c5 b8bd
000003c0: 166b 113d 94f4 5b3e f140 b33e ff0b 10bd
000003d0: b750 babd af69 2dbd 3c8c 00be 46d9 e83d
000003e0: 192b dc3c 4590 14be 01d0 783c cd5b 36be
000003f0: 4243 4abe fd15 933d e28f ad3d 9045 43bc
0.09256099 -0.11494856 0.12454873 -0.05054646 -0.1428321 0.0755537 -0.080813035 -0.0043922625
0.14461064 -0.12691106 0.0034808964 0.1331822 -0.10825276 -0.051307756 0.12178599 0.0012478569
-0.056455024 -0.027781663 0.0042344625 -0.007163016 0.10304391 0.1030868 0.07682662 0.11215797
-0.034720536 0.09622425 0.05267264 -0.036564432 0.06927793 0.14198817 0.06497796 0.07002241
-0.11126774 -0.17095153 -0.031420004 -0.10129102 0.059188373 -0.0026727268 0.03404919 -0.035578478
-0.20421545 -0.093293466 0.018053807 0.09503154 -0.071416795 0.19080599 0.13016725 0.024253227
0.11091785 -0.028676847 0.17626701 -0.046855394 0.061389532 -0.06324147 0.09059794 -0.062586464
-0.03253448 -0.07302661 0.044939805 -0.04033009 -0.016586049 -0.023161622 0.08260799 -0.026224699
-0.0070391768 -0.03746301 -0.12587573 -0.053793732 0.13806915 0.11853055 -0.17633764 0.041221343
0.015472056 0.09694575 0.0018699538 0.021056112 0.05817899 0.044486307 -0.065508954 -0.09212516
-0.031939063 -0.05513494 -0.08858024 -0.023149295 0.207415 0.10384665 0.013347899 0.012237185
-0.015183306 -0.0417138 -0.12931237 -0.07189176 -0.10005064 -0.0309314 -0.07126067 0.02187726
0.08649908 0.09203513 -0.1014719 -0.014224184 0.018399639 0.05365018 0.024123313 0.0010528791
0.09986721 -0.05664078 -0.040579136 -0.041382093 0.16231208 0.11098254 0.013609967 0.0262432
0.25907648 0.034362093 -0.015410855 -0.04229593 0.13411017 0.077019885 0.04520259 0.06507556
0.16365717 -0.071258456 0.22634344 0.11531539 0.16523585 0.18738581 -0.0046899305 0.24775493
0.02561945 0.07710038 -0.30860668 0.34623596 0.08444166 0.015823044 -0.0013225592 0.08569259
0.033933047 -0.11487455 0.12817006 0.02937436 0.14685374 0.13844174 0.3882093 -0.06553699
0.1654647 0.088833295 0.13537182 -0.08559841 0.021003053 0.61321855 0.17950755 0.09813201
-0.47115424 -0.39105728 -0.13077673 0.12073141 -0.1050952 0.38153496 0.08896276 -0.083495505
0.33025184 0.15766345 -0.45580798 0.39884496 0.2621922 0.29752672 0.05256975 0.0025373017
0.13204812 -0.25260633 -0.41504082 -0.53918403 0.13136832 0.14703327 0.0036333823 -0.039165612
0.36946538 0.04321994 0.06841904 0.23085971 0.40127838 0.0017741472 0.25439283 0.017683662
-0.15380575 -0.024751483 0.34976652 0.23761824 0.17829084 0.13148154 -0.012917077 0.08551743
-0.35372347 -0.06155162 0.03669749 0.10809186 0.18505698 0.31529614 -0.073515825 0.28853792
0.114556886 0.22063324 0.036688857 -0.09315355 -0.27526453 0.01943277 -0.019545645 -0.21353379
0.9923206 0.13318598 0.66634375 0.3448459 -0.10229532 -0.22135723 -0.0014004825 -0.2941892
0.60924935 0.48027635 -0.023297217 0.08863308 0.17516682 0.016099969 -0.22990109 0.08193702
0.0030858715 -0.115424365 -0.086484574 0.103088535 0.055535614 -0.0005046233 0.2810117 -0.11860097
-0.2721744 0.15350899 -0.008402661 0.25394553 0.31999278 -0.029174197 -0.39795485 -0.090219684
0.035502516 0.21480018 0.35010484 -0.03516769 -0.090974264 -0.042337116 -0.12553495 0.113695666
0.02687602 -0.1450816 0.015186311 -0.17808457 -0.1975222 0.07181928 0.08474709 -0.01191844

model.lin3.biases f4 [3, 1, 120]
00000000: 82ba 003e 9132 9a3d a922 273e 56ac 0b3e
00000010: f84e dcbc 3f8e 3c3e 7abe c13b c973 26bd
00000020: 9526 023e 1236 1d3d 6be9 64bd ac70 35bc
00000030: 3320 b8bd 83aa bd3c 4a92 5dbb 8f1f e9bd
00000040: 2c64 373e a352 e93d 1d45 093e a973 1d3e
00000050: 62aa 1b3e 420c c73d 3db7 a9bd c178 b2bd
00000060: 4f16 6b3d 313b 9bbb af79 9abd 74c1 ed3d
00000070: 3457 0c3e 5ab9 393e b7e0 133e c7e7 3b3d
00000080: 9d2d 1abd 7c36 6b3e 7ac3 1c3e 44f2 87bd
00000090: 6825 febc e402 26be bbfb 153e 77d5 bdbd
000000a0: 565a 263e cf22 3d3d 87b5 d03c 61e9 853e
000000b0: 8bf2 7f3b 7528 213e 3919 183e ed86 883d
000000c0: 2da9 c83d 802f 74bd 1052 d539 57e9 e3bd
000000d0: 6a19 b4bd 6284 ee3d e138 cd3d 804d 9e3c
000000e0: 480e 7cbd 9a1c 0cbd 7fcb bbbb 7a96 dabd
000000f0: ae06 a2bc dccf cfb9 3089 55bd 0e0b c0bd
00000100: 5503 be3d 8875 033e 6ef0 11be c2f2 3c3d
00000110: 35b8 923c cd06 123e 3ec6 83bd b605 023e
00000120: 10a4 bf3d c0bd 753d 5894 7e3d 7df8 9f3d
00000130: 96db 34bb 23e5 4e3d dba7 e1bd f49d 933d
00000140: a5bc 843d 8aaf a6bd efd0 f7bd a49b fbbb
00000150: 15b2 a0bc 8fcf 1e3e 00f2 ef3c bc4c d43a
00000160: c597 61be c705 3dbc 8670 42be a5ff e43d
00000170: 1f9f 88bd e9ec f63c 3f43 0ebd 5f4a 3dbd
00000180: b00d 303d 1a8e 8c3d 2d4b 3f3d 0a27 b2bc
00000190: 9c9f bb3c 8ff0 983d 3d2c 0c3d 937d 343e
000001a0: 597f ecbd 06b6 5ebd 7b39 bc3d 12da 4f3e
000001b0: 05b7 f2bb fb18 803e 6e31 4d3e a1c4 9d3d
000001c0: 2133 cb3d 5f88 463d 852c 613e 17c0 873d
000001d0: 425f 133e f9bc aabd 8860 0f3e 9b4f e4bd
000001e0: 6002 2dbd b82c 1b3b 40e1 bcbc a37e acbc
000001f0: 0007 e0bb 22c9 023e a29e a63d 42c0 1c3e
00000200: 8701 9cbd 3521 343d 4e2a 9a3c fac0 143e
00000210: 17d2 613d e7b3 abbd 0511 e43d f8c7 abbd
00000220: f85b 8e3d 4c81 033e cf05 173e 86f5 9dbc
00000230: 7a02 cf3c 4b9d a5bd df91 0c3e 24d5 173b
00000240: 288d aa3d d644 8c3e f32c 3c3e 1549 d43d
00000250: a160 c23d 3de1 87b9 f1c6 15be 61ad 88bd
00000260: 30b8 503d ac60 073e 7f85 803d c771 c9bc
00000270: 0bb6 333e 6081 c9bc 2a13 5e3b 5350 243e
00000280: ee5e d4bd 0513 a8bd 5c36 74bd 2b66 00bc
00000290: d540 a83d 7760 c73d 517e 063e 98b2 d9bd
000002a0: f041 e03d 1a70 7fbb 90a8 a7bd 610c 443d
000002b0: 9e2d 223e 220f b13d b6de 17bd c14e abbd
000002c0: 17bc 9f3d a51e 10bc 0f42 bc3d 66e4 09bd
000002d0: 57fd 033d 88ac e03d db53 f0bc 19f3 b13d
000002e0: e124 cabd 5f83 11be 0cd4 923d 7a53 5d3d
000002f0: 4c40 2cbc ac87 0a3d a556 c2bd dd63 01bd
00000300: 0213 6b3d 69b2 f23d ad17 95bd 621a d7bd
00000310: af0d 2f3e 8caa 74bd fca0 8abc c635 8abd
00000320: 32b1 cc3d b2b8 763c 4ded 163e 2c41 553b
00000330: 0c80 ac3d a845 dcbd a511 143e 1393 143e
00000340: eb2b 0b3d 2be0 c53d 1212 3dbd 681a 2e3d
00000350: f5f6 7d3c 339b d43d e51c a3bd 0206 f33d
00000360: 28f9 d33d 553a 793d ade8 57bb c515 02be
00000370: 7539 0bbc 8346 94bc 9276 16bd 6266 d73d
00000380: 308c f1bc 1ae9 0f3e 3c27 e63d 767e 2cbe
00000390: 844e 2d3e e4c3 db3d f692 043e 36ce 9bbd
000003a0: 6b01 bbbd 0f84 90bd 5586 413d f3bf 68bd
000003b0: f7ee 4ebd 9d48 823c 3e17 413d d22e 5cbb
000003c0: 33b8 953d baae da3d bc21 183e 785e 3f3e
000003d0: 07dc 973d d175 28bd d329 d03d 6110 503d
000003e0: 05f1 ddbd 4fc4 883d 7b01 d7bd 4019 2f3e
000003f0: 638c 093d 8a48 a93d 25f3 113e e91d 083b
0.12571147 0.07529176 0.16321816 0.1363996 -0.026893124 0.18413638 0.005912599 -0.040637765
0.1271003 0.038381644 -0.055886667 -0.011074226 -0.089905165 0.023152595 -0.003380912 -0.113829724
0.17909306 0.11392715 0.13405271 0.15376152 0.15201715 0.09719135 -0.08286903 -0.08714438
0.057394322 -0.004737281 -0.075427406 0.11609164 0.1370514 0.18137112 0.1444119 0.045875337
-0.037641156 0.22970003 0.15308943 -0.066380054 -0.031023696 -0.1621204 0.14646809 -0.09269231
0.16245398 0.046175774 0.025477184 0.26154616 0.003905448 0.1573809 0.14853372 0.0666636
0.09797893 -0.059615612 0.00040687667 -0.111284904 -0.0879391 0.11646344 0.100206144 0.019324064
-0.061537057 -0.034206964 -0.0057310457 -0.106732324 -0.019778576 -0.00039636984 -0.052132785 -0.093771085
0.09277979 0.12837803 -0.14251873 0.04612995 0.017910102 0.14260407 -0.06434296 0.12697491
0.09357464 0.059995413 0.06215319 0.07811067 -0.0027596704 0.05051149 -0.11018344 0.072078615
0.064812936 -0.0813895 -0.12100398 -0.007678466 -0.019616166 0.15508865 0.0292902 0.0016197185
-0.22030552 -0.011537022 -0.18988237 0.11181573 -0.06670975 0.030142264 -0.0347321 -0.046213504
0.042981803 0.06863041 0.046702553 -0.02174713 0.022903256 0.07467758 0.034221876 0.17626028
-0.11547727 -0.05437281 0.09190651 0.20298031 -0.0074070715 0.2501906 0.20038387 0.077035196
0.099218614 0.048469897 0.21989639 0.06628435 0.14391807 -0.08336825 0.14001667 -0.11147996
-0.042238593 0.0023677777 -0.023056626 -0.021056479 -0.006836772 0.12772039 0.081357256 0.15307716
-0.07617479 0.04397698 0.018819 0.1452674 0.055131998 -0.08383923 0.11136059 -0.083877504
0.069511354 0.12842292 0.1474831 -0.019282114 0.025269736 -0.08086642 0.1372752 0.0023167813
0.08327705 0.27396268 0.18376522 0.10365502 0.09491087 -0.00025917022 -0.14626671 -0.066736944
0.050956905 0.13220471 0.06275462 -0.024590386 0.17549913 -0.024597824 0.0033885934 0.16046266
-0.10369669 -0.08206753 -0.059622154 -0.007836859 0.08215491 0.09735196 0.13134123 -0.10629767
0.109500766 -0.003897673 -0.081864476 0.047863368 0.15837714 0.086454645 -0.037077628 -0.083646305
0.07799547 -0.008796369 0.09192287 -0.033665083 0.032224026 0.10970408 -0.02933686 0.08688945
-0.09870315 -0.1421027 0.07169351 0.054034688 -0.010513376 0.033820793 -0.094891824 -0.031589378
0.057391174 0.11850435 -0.072799064 -0.10503079 0.17095064 -0.05973296 -0.016922466 -0.06748538
0.09994735 0.015058683 0.1473896 0.0032540066 0.084228605 -0.107554734 0.14459856 0.1450923
0.03397743 0.09661897 -0.04615981 0.04250565 0.015500774 0.103811644 -0.079644956 0.1186638
0.10350257 0.060846645 -0.0032945082 -0.12703617 -0.008497586 -0.018100029 -0.03673417 0.10517575
-0.029485792 0.14053765 0.11237952 -0.16845116 0.16924483 0.107307225 0.12946686 -0.07607691
-0.0913113 -0.07056438 0.04724725 -0.056823682 -0.050520863 0.015903765 0.047141306 -0.0033597243
0.07310524 0.10677858 0.14856619 0.1868838 0.07415014 -0.041127983 0.10164227 0.05079687
-0.108369865 0.06678068 -0.10498329 0.17099476 0.03358115 0.08265789 0.14252909 0.002076978

model.lin4.weights f4 [3, 120, 40]
00000000: 632f 603d 33be 7dbd fa68 a93d 583b 99bd
00000010: 987c cabc 1418 76bc 94ef 883d a698 633c
00000020: 8620 87be 4a2c 943d 611b f33d 6e0e e53d
00000030: bfc3 ec3d 5213 173d 6f73 bbbd 107a 8e3d
00000040: ad62 823d d591 afbd 48b3 79bd 098b 01be
00000050: e37e b63d 63fd d53c c1c5 b4bd b2f1 333b
00000060: e695 15bd fd58 963d 757d 3e3d a13c 213d
00000070: 5dae 19bd a18c 423d e82f dabc dcc3 633d
00000080: e05a b73b 11b0 9abd 6800 723e f5c8 a33d
00000090: 5659 153e ad8e 5c3d 31e0 923d e841 643d
000000a0: e44c 0d3d 2d1e cdbd 9c67 7ebc ba3d a93d
000000b0: 5793 153d d75c 0f3e e3a9 dd3d 8af4 c53d
000000c0: de2b 883c 3f75 6dbd 7e49 7ebd de5b 423d
000000d0: 4b54 013d 0343 463d 9901 d03c b490 86bd
000000e0: ce4b 0a3d 256d 18be 0bee 523c 1b12 dabc
000000f0: f65f f3bc 28f0 8a3d c8fc 823d 0867 9d3d
00000100: 3d49 b33d 2b55 d23c 7ed4 aabd 274d 07be
00000110: 42f3 1d3e 60d9 bfbc 5b1c 673b b5b1 70bc
00000120: cf37 313e 61d1 c73d 483a a7bb c897 ac3d
00000130: daf4 a5bd b586 b6bc 9a99 e83a 9d89 f23d
00000140: 3e0c c63c 25e9 893d afd9 1a3d 96db 493d
00000150: 347a eb3c 0f68 de3d f60e 353c 9ce2 c63d
00000160: b931 e63d b676 bbbd bdfb ffbd b9dc 2abf
00000170: 5c7a dc3d 4655 c93d 8469 7e3d ec68 c93d
00000180: 717f 5c3d c519 023d 4407 acbd b01c 593d
00000190: 1c74 02be 1e78 7e3a 4c95 b23c 3f4e 9b3d
000001a0: 9876 b53d 18dd 343d b8e7 81bc a5dc 0ebe
000001b0: 5ef3 d83d b466 533d 0782 013d cad9 fd3c
000001c0: ad6e d4bd ae9a 543d 5bef ecbd 58ea f63d
000001d0: 9214 46be 6ba4 0b3d 63e7 84bd 7614 233e
000001e0: 5382 c23d a3ee 543c de59 3a3d 9780 f73d
000001f0: 6170 5b3d be93 bf3d dd13 c13d 848f 22bd
00000200: dcd6 c73d d8cd 6dbe bf60 18bd d00b f8bc
00000210: 8ac5 9ebd c017 b33d 5f47 a1bd 3c8e 4b3d
00000220: e92e 003d 429b ba3d a66c 693d c7fe 053b
00000230: 0a49 c7bd ea4c 2c3d 8a77 16bd 916e 60bd
00000240: 2330 e83d 5a2c b33c 740e a7bd 66f5 413d
00000250: 71ee f23d dbda 06bb e0ed 663d b6c7 a23a
00000260: 2734 97bd dca9 823c 3a85 173c b48b 5bbd
00000270: e92b 4ebd be2e bf3d b31c a5bd f18c cb3c
00000280: 43ba 2bbe 704d 093d 7413 00be 2fd6 88bb
00000290: 2cc0 2a3d cecb 6abe b196 9cbc 35f1 a03d
000002a0: 5000 34be 6d57 803d 21ab 8f3e bff2 443f
000002b0: 4220 abbd a8a6 bcbe 9469 663d ec5c 1bbd
000002c0: aa18 f4bc 9af4 c7be 0ec1 a93d ac80 e3be
000002d0: 7f16 abbe 97fd 14be 2cb0 91bc ef18 033e
000002e0: 53ab e2bd b06c edbd 7ab5 7c3d c4f5 973e
000002f0: 4b2c 43bd dce6 42bd 4003 90bd cac1 f1bc
00000300: a8bb b83e 9f29 15be e20d 5b3e 7770 a43d
00000310: f8ff 55be 17f2 c63c 74cf 873d d6fc 6f3e
00000320: b3cd b93d e093 bbbd 2fa6 a33d 22a0 d43d
00000330: 9ca9 463d ca99 9cbb 9ade 0c3c c02c 10bd
00000340: 6a57 913d 387a b6be 7516 ff3c 8975 e6bd
00000350: 095c 23bd 8158 ec3d 5919 473c 4cb0 55bc
00000360: 8558 89bd b645 a13d 9629 3fbc 1e21 4a3d
00000370: 5eaf 37bd e882 3e3c 39d3 313d a5f0 b33c
00000380: b17b bc3c c6a8 5d3c abdc e83c e7bc f4bd
00000390: 3d90 173e 6f7c 03bd b9f8 30bd 0413 63bd
000003a0: ee85 5dbe 9214 763c 1809 9dbd 6503 dfbc
000003b0: fd57 02be a483 bd3d cb65 423c e415 e43d
000003c0: 0163 9a3c 9310 a9bd 0fc1 633c f2e9 9e3d
000003d0: 1cfc 133d fa27 29bc d9ef 1fbd 163b 3f3d
000003e0: 654b a13d 678a 3abb db78 1d3d 3ae0 023e
000003f0: 3ac9 ebbb b229 da3d 7cbf bcbd d0db 35bd
0.05473269 -0.061948966 0.08271976 -0.07482022 -0.024717614 -0.015020389 0.06686321 0.013891375
-0.26392 0.0723501 0.118704565 0.11184393 0.11560773 0.03688366 -0.091528766 0.06956875
0.06366477 -0.08572737 -0.06096199 -0.12650694 0.089109205 0.0261218 -0.08826781 0.0027457294
-0.036519907 0.07341192 0.046506364 0.03936446 -0.0375198 0.047497395 -0.026634172 0.055606708
0.00559555 -0.07553113 0.23632967 0.07997314 0.1458486 0.053847004 0.07171667 0.055726916
0.034497157 -0.10015521 -0.015527632 0.082637265 0.036517467 0.1400026 0.10823419 0.09665783
0.01662248 -0.057973143 -0.062081806 0.047450893 0.03157453 0.04840375 0.025391387 -0.06570569
0.0337637 -0.14885385 0.012874137 -0.026619961 -0.029708844 0.067840874 0.063958704 0.07685667
0.087542035 0.025675377 -0.08341311 -0.13213025 0.15424827 -0.023419082 0.0035264704 -0.014690806
0.17306446 0.09756733 -0.005103383 0.084273875 -0.08103342 -0.02228103 0.0017745972 0.11842654
0.02417576 0.06733922 0.037805256 0.04928168 0.028744794 0.10859691 0.01105093 0.09711191
0.112399526 -0.09153502 -0.12499187 -0.66743046 0.10765526 0.09830718 0.062112346 0.098344654
0.053832475 0.031762857 -0.08399823 0.053005874 -0.12739605 0.000970723 0.021799706 0.07583284
0.088605106 0.044156164 -0.015857562 -0.13951357 0.105932936 0.051611617 0.031618144 0.030987639
-0.10372672 0.051905327 -0.11569091 0.12056416 -0.19343784 0.034092348 -0.06489446 0.15925774
0.094975136 0.012996349 0.04549586 0.120850734 0.05357397 0.093543515 0.09427617 -0.03968765
0.09757778 -0.23223054 -0.03720164 -0.03027907 -0.07752521 0.08744764 -0.07874941 0.049696192
0.031294737 0.09111644 0.05698838 0.0020446049 -0.09730728 0.04206554 -0.036735095 -0.054792944
0.11337306 0.021871734 -0.081570536 0.04735317 0.11861885 -0.0020577225 0.0563792 0.0012419138
-0.07382994 0.015950136 0.009248072 -0.05360003 -0.050334845 0.09335087 -0.080621146 0.02484748
-0.16770272 0.033521116 -0.12507421 -0.0041759233 0.041687176 -0.22929308 -0.019114824 0.078585066
-0.17578244 0.06266675 0.28060248 0.769329 -0.08355762 -0.368459 0.05625303 -0.037930414
-0.029796917 -0.39053804 0.082887754 -0.44434106 -0.334156 -0.14549862 -0.0177842 0.1280248
-0.11067834 -0.11592996 0.061696507 0.29679692 -0.047649663 -0.047583446 -0.0703187 -0.029511351
0.3608067 -0.14566658 0.21392015 0.080292635 -0.20898426 0.02428536 0.066313654 0.23436293
0.09072437 -0.09159064 0.079906814 0.103821054 0.048501596 -0.0047790753 0.008597994 -0.035198927
0.07096751 -0.3564012 0.031138638 -0.11252887 -0.039882693 0.11540318 0.012152039 -0.013042521
-0.06706337 0.078746244 -0.01166763 0.04934799 -0.044844978 0.01162789 0.04341433 0.021965334
0.0230082 0.013529008 0.028425535 -0.11950093 0.14801116 -0.03210109 -0.04320595 -0.055438057
-0.21633121 0.015019553 -0.0766775 -0.027223298 -0.12728877 0.09253624 0.01186509 0.11136988
0.018846037 -0.082551144 0.013901009 0.07759465 0.036129102 -0.010324473 -0.039047096 0.046687208
0.078757085 -0.0028463842 0.038445335 0.12780848 -0.007195619 0.10652484 -0.0921621 -0.044399083

model.lin4.biases f4 [3, 1, 40]
00000000: 455a 7bbd 01ae 993b d610 863d fb20 a03c
00000010: 7876 fb3d 7d65 c23a 6f51 203e d2af b23d
00000020: cddd 8cbc e3ad 0e3e 5455 10bd d1d5 853d
00000030: 5e0b cb3d def6 e73d 49dd 73bb 5b3d 1e3c
00000040: 9c5f 743d 3511 a73b 5df5 30bd 4fa7 533d
00000050: 242d 7e3c 6015 86bc 11ce 923d 7595 7a3d
00000060: 938a 3c3d 1e1e 253e 0c3d 4fbc 8dc1 51bc
00000070: a73b 483e 0548 143d 1206 eebc 8e92 443c
00000080: 6d06 3abe 8b62 fa3d 8130 523d 81df fabc
00000090: dcac 123d 3556 f73d 605e 99bc 988c 0e3e
000000a0: e651 063d 2237 023d c4fa 693d 6bf0 563d
000000b0: a36f ab3d e075 f6bb 3c1c 9e3b 5475 fbbc
000000c0: d91d fb3d d3c4 0d3d ea3d 89bc a156 a13d
000000d0: 5614 b7bd 5b33 94bd a955 83bc b09a 323c
000000e0: 696f 803d 1a98 9cbc 278b fbbc 84ba 893c
000000f0: 21c9 b53d 5cd6 00bc 375b 183e 5c0a 4bbc
00000100: 8928 8abd 1f11 753d bd40 d2bc 1c9b 9fbd
00000110: f954 2abd 0eb6 983d c705 8bbc 04ff 803c
00000120: c0f5 f6bc b640 8e3d 1f2a ae3d 296b ed3d
00000130: af59 7b3d b0b2 683d 5ef8 dcbd 71f9 643d
00000140: 8042 a23d c121 80bd e15b dbbc 2fb3 8b3d
00000150: f2ad 87bd df48 183e 4666 e7bc 9c14 8e3d
00000160: 7869 173d a679 8dbd 9f84 103e 2d0b 473b
00000170: 9157 cebc 85d8 bb3d 5499 5f3d c620 1a3e
00000180: b74c 59bd c925 023e ae51 a93c 87d9 04bb
00000190: 580e d63b 1a7f 49bd 3e5e 133d 5fbe 1f3e
000001a0: af5d 1fbd 092a 28bd 320e 453a 1d04 ba3c
000001b0: b29c a7bc e4ef 2c3e 3a42 dfbd a5c8 8e3c
000001c0: a4cd 643d 26d6 e53d 03f9 fe3d 15e9 983d
000001d0: 3a8f 6f3d ab22 0a3e 39ce ff3c 4094 9b3d
-0.061365385 0.0046899323 0.0654618 0.019546976 0.122784555 0.0014831271 0.15656064 0.08724941
-0.017195607 0.1393352 -0.035237625 0.06534923 0.099142775 0.11326383 -0.0037210754 0.009658183
0.059661493 0.005098487 -0.043202747 0.05167323 0.015513692 -0.016367614 0.0716821 0.06117769
0.046030592 0.1612477 -0.012648832 -0.012802494 0.19554006 0.036201496 -0.029055629 0.011997832
-0.18166514 0.12225827 0.05131579 -0.030624153 0.035809383 0.120769896 -0.01872176 0.1392082
0.03279295 0.03179086 0.057123914 0.052475374 0.083709024 -0.007521376 0.004825143 -0.030695595
0.12261552 0.034611534 -0.016753156 0.07877851 -0.08939426 -0.07236358 -0.016032057 0.010901138
0.0627125 -0.019115496 -0.030706001 0.01681257 0.08876253 -0.007863607 0.14878546 -0.012392607
-0.06746013 0.05983078 -0.025665635 -0.07793257 -0.041584942 0.07456599 -0.016970528 0.0157466
-0.03014648 0.069459364 0.08504128 0.11592705 0.061364826 0.056811035 -0.1078956 0.05590195
0.0792284 -0.06256438 -0.02677721 0.06821286 -0.06624974 0.14871548 -0.02824701 0.06937525
0.036965817 -0.06907968 0.14113091 0.0030371652 -0.02518824 0.09172157 0.054589584 0.15051565
-0.053051677 0.12709726 0.02066883 -0.0020271258 0.0065324716 -0.04919348 0.03597855 0.15599965
-0.038907703 -0.041055713 0.0007517069 0.02270704 -0.02046046 0.16888386 -0.109013036 0.01742966
0.055860177 0.11222486 0.12449839 0.07466332 0.0584862 0.13489787 0.031226264 0.07596636

model.lin5.weights f4 [3, 40, 4]
00000000: 28a1 163d ab6c d4bd d548 f3be baa9 c2be
00000010: c4de ecbd e7fa 9abd 56de cb3d 670b 82bd
00000020: aae3 da3d 5ace 063d 2701 b5be c7d3 373d
00000030: 2470 cfbd 874e b73d 6eeb a1be e09f 0bbe
00000040: b09c 403c 3410 693e ff10 63bf 63d6 e2bd
00000050: 0822 f43c 02df 9dbd 3038 e0be 809f 25bf
00000060: 7495 97ba a8b6 5d3e a11d 23bf e7ba c5be
00000070: 161d cdbd e851 1f3e 1403 2abf 3972 eebe
00000080: 07da 9dbe fdac 70be bda6 b7bf a6f8 cebf
00000090: 8b59 6a3f b3f2 60bf 2f52 8b3f d74b 963f
000000a0: 8a40 0ebd 8579 30be 4bd2 efbb 541b 2c3f
000000b0: 3e05 753b 09ec 323e 7261 553f c9d8 743e
000000c0: 5417 bc3d f9b7 233e a0a4 33be 7aeb a13e
000000d0: 5319 553c cd66 683e 8ca4 99be 89cf a6bd
000000e0: f28e 8fbd 437b debc e624 b43b 6f87 90bd
000000f0: 32dc 72bd ab5f b2bd 1500 92be 3466 a93e
00000100: c397 9b3d 4fae dd3d d620 63be 2b36 4a3e
00000110: 2f3f 85be e99c c93e d086 86bf 471b 7cbf
00000120: b972 cebd 91f2 d53d 3ee1 54be 3c22 a4bd
00000130: 72ba b4bd 04e8 ec3e da2e d8bf 1719 a4bf
00000140: 9d40 3cbc 1021 1abf cf8d 07bd 3f1f 0fbf
00000150: d33e 0e3e a970 09bf cf8b 92be fbf9 45bf
00000160: 9d98 c5bd 7fb4 33bd d976 1ebd c0e7 d2bd
00000170: 8a0e 8fbd df04 bb3e 6782 42bd 9b8a b63d
00000180: 9d1a aa3d 4fa3 c83d d6ca 82be ee0d 49be
00000190: cdfa 093e 661c 433f 93b1 4dbe d367 a5be
000001a0: 8ea6 033d 90b7 40bd 6d42 9cbd c1e0 fabd
000001b0: e36f f43c 5047 4dbe 6937 fe3d b7d8 233f
000001c0: 9264 ba3c 3ece ba3e cb20 85be c792 f2be
000001d0: 1965 f5bd bbd7 dbbd babe f43d b9e1 ebbc
000001e0: 06e0 ddbd fb95 743e 9e31 9fbe b837 2fbe
000001f0: 736d e33d f27c 2f3e cfad dcbc 1f62 8e3e
00000200: aacc 79ba ad30 2340 07c6 f83d b2b8 5a3f
00000210: 7047 0d3f 1d51 d1be 8865 9abf fd6b 77bf
00000220: a8ac c93c e680 8b3f 1e77 903d 8671 093e
00000230: 4f7f 9ebd 5b39 813e f890 20be 5979 813d
00000240: 4a93 613a f72b ce3e d0f5 04be 1227 923f
00000250: 274c c63e c589 20bf ee8a 8bbe f13b 43bf
00000260: 050e b6bd 20c8 2ebd 72b6 40bd 5a3f 13be
00000270: 8d1c b6bb 4726 243f 00d3 393b ec8a 5ebe
00000280: d01b a13d bd41 eb3d 029c 1cbe 2e99 c0bd
00000290: 3b94 933c 899e a63c a8b7 1e3e 8d7a 0abe
000002a0: c6d1 94bd e876 853d afc7 053e 9523 c7bd
000002b0: a2b2 b73d 2d60 983e 3c70 3abe 9899 3cbe
000002c0: bb95 6a3d 5d52 ab3e 0b34 dabd c2c7 0d3e
000002d0: 6af5 f03d 36c1 ed3d a013 7b3d 9d3e 11be
000002e0: 032c 9bbd 9652 dbbd f4b2 1abd 35a8 90bc
000002f0: 1eb4 bfbb f8ee 79bd 7356 043d e00f 943f
00000300: 4deb 223e 6061 6b3d 0ecb 2dbd 938d 9b3e
00000310: 1745 993d de98 a9bd 9c66 c93c 586f bbbd
00000320: 2a98 0a3e 744b a3bd 1844 c9bd f49c 84bd
00000330: 2f11 1d3e 3b24 27bf e59d 9b3e 0e39 28bf
00000340: a4eb 3cbe f3b5 483d 02c6 25bf 4e3f 67bf
00000350: 645b b7bd ba83 773d d512 20be 1b27 0b3e
00000360: 5fd5 17be 7d6d 4fbd ba8a 0ec0 7fae b1bf
00000370: 9a28 c03d e8ea 9a3d 2903 1cbe 405a e5bc
00000380: fa1c 37bc fc16 d13e 7439 d3be e854 7738
00000390: 4c1c a2bd a132 663e 8114 8abe bfd1 6fbd
000003a0: ca77 253d 7757 cebd 7b93 dfbd 8023 90bd
000003b0: dc5f 0a3d e20f 233e 41d6 eebe 5d68 abbc
000003c0: 55d6 293e 19c9 163f 71c8 973e ca04 12bf
000003d0: dc15 6fbd 14a0 d6bd 6fea 04bf 8b00 403e
000003e0: e0b9 e53d b227 733e 0081 9ebe 969f e93c
000003f0: f560 18be 3ad6 583f fdbe 58be ae24 93bf
0.036774784 -0.10372289 -0.47516504 -0.38020116 -0.11565927 -0.07567387 0.099545166 -0.06349831
0.10687955 0.032911636 -0.35352442 0.0448797 -0.10128811 0.08950525 -0.3162493 -0.13635206
0.011756107 0.22760087 -0.8869781 -0.11076047 0.029801384 -0.07708551 -0.43792868 -0.646965
-0.0011564926 0.21651709 -0.63717085 -0.38619158 -0.10015313 0.15558589 -0.66410947 -0.4657152
-0.30830404 -0.2350349 -1.434776 -1.6169631 0.9154288 -0.8787033 1.0884455 1.1741894
-0.034729518 -0.17233856 -0.00731877 0.672292 0.0037387158 0.17472853 0.83351815 0.23910822
0.09184137 0.15988149 -0.17543268 0.31624967 0.013006526 0.22695465 -0.30008352 -0.08145053
-0.070096865 -0.027158385 0.0054975627 -0.07057082 -0.059292026 -0.087096535 -0.28515688 0.33085787
0.075973056 0.10824262 -0.22180495 0.19747226 -0.26024768 0.39377525 -1.0509892 -0.9847912
-0.10080475 0.104466565 -0.20789048 -0.08014342 -0.08824624 0.46270764 -1.6889298 -1.2820157
-0.011490014 -0.602067 -0.033094224 -0.5590705 0.13891153 -0.5368753 -0.2862229 -0.77334565
-0.09648249 -0.043873306 -0.03868756 -0.10298109 -0.06985195 0.36527154 -0.047487643 0.08913156
0.08305857 0.09796774 -0.25545377 -0.1963422 0.13474579 0.7621521 -0.2008727 -0.32305774
0.03214126 -0.04705006 -0.07629857 -0.122499 0.029838508 -0.20046735 0.124129124 0.64002556
0.022753034 0.36485475 -0.26001582 -0.47377607 -0.119821735 -0.10734507 0.11950441 -0.028794156
-0.10833745 0.23885338 -0.31092542 -0.17111099 0.1110486 0.17137507 -0.026938347 0.27809235
-0.00095290935 2.549846 0.12147146 0.8543807 0.5518713 -0.40882197 -1.2062235 -0.9664915
0.024618462 1.0898712 0.0705397 0.13422212 -0.07739126 0.2523907 -0.15680301 0.06321973
0.00086050166 0.40267918 -0.12984395 1.1418173 0.38729975 -0.6271022 -0.27254432 -0.7626334
-0.08889393 -0.042671323 -0.047048993 -0.14379635 -0.0055576027 0.64120907 0.0028354526 -0.21732682
0.07866633 0.11487148 -0.15293887 -0.09404217 0.018015018 0.020339267 0.15499747 -0.13523312
-0.072665736 0.0651682 0.13064454 -0.097235836 0.089696184 0.29760876 -0.18206877 -0.18417966
0.0572717 0.33461276 -0.10654458 0.13845733 0.11765559 0.11609118 0.061298013 -0.14184041
-0.07576754 -0.107091114 -0.03776832 -0.017658332 -0.005850329 -0.061018914 0.032309007 1.1567345
0.15910073 0.05746591 -0.042429976 0.3038145 0.07483881 -0.0828111 0.02458506 -0.091520965
0.13534608 -0.07973376 -0.09827441 -0.06475249 0.15338586 -0.6528966 0.303939 -0.6571206
-0.18449265 0.049001645 -0.6475526 -0.9033097 -0.08952978 0.06042836 -0.15632184 0.13589136
-0.14827488 -0.050641526 -2.2272172 -1.3881377 0.09382744 0.07564336 -0.1523558 -0.027997136
-0.011176342 0.40837848 -0.4125477 5.8968464e-05 -0.079155535 0.22480251 -0.26968768 -0.05854964
0.040397443 -0.10075276 -0.109168015 -0.07038021 0.033782825 0.15924028 -0.46647838 -0.020923788
0.16585667 0.589006 0.29645112 -0.5703856 -0.058370456 -0.10479751 -0.5192022 0.18750207
0.112170935 0.23745611 -0.30957794 0.02851848 -0.14880736 0.84701884 -0.21166606 -1.1495569

model.lin5.biases f4 [3, 1, 4]
00000000: d42a 5c3e f216 1d3e 2606 1fbe 51ea f5bd
00000010: 42ee dbbc 33e3 b23d 58ef a5be d2a4 92be
00000020: 7239 183d 7299 2b3e 86e3 95bd 0082 62bd
0.21500713 0.15340784 -0.15529689 -0.12007583 -0.026847009 0.08734741 -0.32409167 -0.28641373
0.03716416 0.16757753 -0.07318787 -0.05529976
